DorsalNet/airsim_dorsalnet_batch2_model.ckpt-3174400-2021-02-12 02-03-29.666899.pt (torch, 301877 bytes, 73 tensors)

subnet.s1.conv1.weight f4 [64, 3, 5, 7, 7]
-0.002413925 0.01557363 0.21218741 0.44002286 0.91482764 1.2435616 1.4192493 -0.15208076
-0.31772995 -0.33827904 -0.13977714 0.26051345 0.81329775 1.2003993 -0.14404978 -0.4449632
-0.7466937 -0.7770272 -0.41911674 0.016268862 0.5116639 0.09630965 -0.23474357 -0.6057101
-0.9208014 -0.86136556 -0.63749564 -0.19293787 0.33190715 0.19321114 -0.17576098 -0.44497633
-0.54312396 -0.616707 -0.62563306 0.26220164 0.3555799 0.23733793 0.13397165 0.030216202
-0.25596133 -0.6005375 -0.18577869 0.0045781317 0.25181282 0.23575425 0.15750861 0.046224754
-0.23282765 0.24140315 0.06296042 0.11105905 0.26952618 0.6470857 1.0284566 1.2321413
0.078302965 -0.2800362 -0.4677475 -0.42456436 -0.027189717 0.42095238 0.9868231 0.24217759
-0.26701188 -0.7000725 -0.8412022 -0.69495845 -0.1913073 0.29008743 0.41965526 -0.024332853
-0.49145427 -0.8794313 -0.87062 -0.6878832 -0.3112834 0.60833514 0.43846682 0.05323648
-0.28467593 -0.46947283 -0.59072757 -0.5906947 0.45743284 0.50991285 0.47333744 0.36499712
0.20903681 -0.11708331 -0.45108178 -0.11228791 0.106865 0.3946516 0.47627977 0.53899395
0.32014087 0.048364323 0.12156294 0.12062249 0.14191434 0.25709435 0.6178614 0.8866588
1.1348257 -0.025027853 -0.3384417 -0.48545903 -0.46779218 -0.14514829 0.31739986 0.78166664
0.16926947 -0.34148926 -0.7409662 -0.9081876 -0.76597625 -0.30371848 0.2652519 0.41264534
-0.09682335 -0.5556241 -0.9463089 -0.9704456 -0.79570013 -0.34041703 0.66111803 0.42501926
0.036047295 -0.39076006 -0.55269647 -0.71720785 -0.66239756 0.46750984 0.54063004 0.5287748
0.33762348 0.15085092 -0.22287346 -0.4745182 -0.05446617 0.13114393 0.44227016 0.603621
0.56323296 0.41996244 0.11494961 0.073508844 0.06783211 0.03374413 0.11705805 0.39587697
0.55656046 0.91444695 -0.050362054 -0.38041505 -0.52260476 -0.47005722 -0.2676845 0.112674415
0.5357286 0.18905608 -0.3411483 -0.7249298 -0.86636436 -0.7681483 -0.41274515 0.10247937
0.5139069 -0.058652677 -0.5518609 -0.8657534 -0.8882512 -0.7963673 -0.35813898 0.69428176
0.45482212 -0.03670236 -0.4489475 -0.60970056 -0.67275673 -0.64913386 0.53430533 0.50245833
0.42094234 0.25458193 0.04931588 -0.31360438 -0.47605014 -0.019691695 0.088103846 0.38629696
0.47263536 0.46325973 0.27619484 0.04022277 -0.08995569 -0.09115264 -0.08703789 -0.07273074
0.07327646 0.2736173 0.6394735 -0.1109458 -0.4144871 -0.48054653 -0.5966349 -0.4954411
-0.2818602 0.14910336 0.23059647 -0.14319095 -0.42888424 -0.6096692 -0.75850034 -0.5545969
-0.20358431 0.61741525 0.2945698 -0.0092317 -0.3694419 -0.5878976 -0.6036656 -0.4493364
0.7960591 0.7289859 0.43862897 0.04219023 -0.14456746 -0.39494348 -0.46339703 0.52380943
0.6147951 0.59303546 0.51341623 0.28786418 -0.007822931 -0.30253395 -0.09795321 0.13872185
0.49887925 0.5956969 0.56982905 0.435419 0.16649187 -0.26669616 -0.18416625 0.026630165
0.21781443 0.6855957 1.0337206 1.2209572 -0.36757785 -0.46580687 -0.5064413 -0.36565655
00000000: f132 1ebb 8a28 7f3c a847 593e ad4a e13e
00000010: 2532 6a3f 072d 9f3f f6a9 b53f 0fbb 1bbe
00000020: 80ad a2be e932 adbe bd21 0fbe 0562 853e
00000030: 4834 503f afa6 993f c981 13be 37d2 e3be
00000040: 5127 3fbf 41eb 46bf 7896 d6be 4746 853c
00000050: 68fc 023f fe3d c53d 9e60 70be d10f 1bbf
00000060: a4b9 6bbf 7482 5cbf ea32 23bf 8191 45be
00000070: bcef a93e 24d9 453e b0fa 33be f0d3 e3be
00000080: 2c0a 0bbf 83e0 1dbf 7d29 20bf 4b3f 863e
00000090: 920e b63e b708 733e dd2f 093e f887 f73c
000000a0: 5d0d 83be d3bc 19bf c53c 3ebe 2704 963b
000000b0: 9ced 803e 9069 713e f049 213e 2b56 3d3d
000000c0: 5f6a 6ebe 6332 773e 65f1 803d ed72 e33d
000000d0: 56ff 893e 69a7 253f 77a4 833f ceb6 9d3f
000000e0: 4e5d a03d e860 8fbe 9a7c efbe 8060 d9be
000000f0: f8bc debc 1287 d73e 70a0 7c3f 67fd 773e
00000100: c8b5 88be f437 33bf 0759 57bf cce8 31bf
00000110: 10e6 43be 5786 943e 0edd d63e b155 c7bc
00000120: e59f fbbe 6922 61bf f4e0 5ebf 1d19 30bf
00000130: 8a60 9fbe dabb 1b3f b97e e03e 7f0e 5a3d
00000140: 0bc1 91be be5e f0be ec39 17bf c537 17bf
00000150: a334 ea3e a689 023f 4959 f23e e7e0 ba3e
00000160: bf0d 563e 60c9 efbd 31f4 e6be 34f7 e5bd
00000170: 0adc da3d c60f ca3e f1da f33e 82fb 093f
00000180: 81e9 a33e ab19 463d fef5 f83d ed08 f73d
00000190: fe51 113e dfa1 833e 2a2c 1e3f 12fc 623f
000001a0: f841 913f 3607 cdbc 3b48 adbe 168e f8be
000001b0: 7582 efbe c1a1 14be 3c82 a23e 4e1b 483f
000001c0: fa54 2d3e aed7 aebe f6af 3dbf fc7e 68bf
000001d0: 0517 44bf fd80 9bbe 19cf 873e 4046 d33e
000001e0: 524b c6bd 623d 0ebf 4d41 72bf 1f6f 78bf
000001f0: 01b3 4bbf 244b aebe 083f 293f 209c d93e
00000200: 54a6 133d b411 c8be 847d 0dbf ef9a 37bf
00000210: e392 29bf 735d ef3e bb66 0a3f c95d 073f
00000220: fcdc ac3e aa78 1a3e f138 64be 0df4 f2be
00000230: eb17 5fbd 984a 063e 3c71 e23e e886 1a3f
00000240: 0930 103f 5105 d73e b36a eb3d ce8b 963d
00000250: 90eb 8a3d 4937 0a3d 22bc ef3d 63b0 ca3e
00000260: bf7a 0e3f 3219 6a3f 7148 4ebd c3c5 c2be
00000270: 6dc9 05bf 57ab f0be f10d 89be d8c1 e63d
00000280: 8225 093f eb97 413e fdaa aebe 0095 39bf
00000290: 0eca 5dbf 5ea5 44bf 5553 d3be b4e0 d13d
000002a0: 678f 033f ca3d 70bd c246 0dbf 04a2 5dbf
000002b0: 6e64 63bf bade 4bbf fe5d b7be 73bc 313f
000002c0: 72de e83e 3755 16bd 72dc e5be 5615 1cbf
000002d0: c939 2cbf a32d 26bf 3cc8 083f 1ca1 003f
000002e0: c185 d73e 9058 823e 73ff 493d c190 a0be
000002f0: d8bc f3be 7a50 a1bc ca6f b43d b7c8 c53e
00000300: 43fd f13e 6130 ed3e 6969 8d3e a2c0 243d
00000310: b03a b8bd 3cae babd ec40 b2bd dbf3 94bd
00000320: f811 963d 9117 8c3e 89b4 233f 8d37 e3bd
00000330: a737 d4be 320a f6be 11bd 18bf 75aa fdbe
00000340: fb4f 90be 8dae 183e 7b21 6c3e a6a0 12be
00000350: b796 dbbe 4813 1cbf 142d 42bf 10fa 0dbf
00000360: 6878 50be ed0e 1e3f dad1 963e 8e40 17bc
00000370: 7d27 bdbe 7580 16bf d489 1abf 6c0f e6be
00000380: 87ca 4b3f d29e 3a3f fa93 e03e aacf 2c3d
00000390: 7e09 14be 0836 cabe 6042 edbe 6018 063f
000003a0: 3663 1d3f 2cd1 173f 3f6f 033f ef62 933e
000003b0: c02b 00bc bbe5 9abe b19b c8bd 1a0d 0e3e
000003c0: 1a6d ff3e 987f 183f 51e0 113f 3def de3e
000003d0: d87c 2a3e 668c 88be 1496 3cbe 8127 da3c
000003e0: bf0a 5f3e 3383 2f3f f550 843f 5348 9c3f
000003f0: 2a33 bcbe 3d7e eebe 23a6 01bf 5637 bbbe

subnet.s1.bn1.weight f4 [64]
1.2206942 0.9854914 0.46463278 1.0085185 1.2263892 0.5660535 -0.0046341047 1.2149581
0.9936605 1.0648155 0.025214959 0.92404467 1.4024734 0.3696068 0.4089929 0.6737965
0.40995768 1.4888451 0.7603231 0.70722735 0.5816865 1.4689932 1.2009594 0.88369596
0.56053257 1.1588863 1.1641316 0.9735621 1.2657317 1.0902114 0.96206576 0.00015439391
1.5334412 0.87596554 0.83420014 0.0063797953 1.5682145 1.4951037 1.6313771 0.87099075
0.61759025 0.88616425 0.64758587 0.8828624 0.6172417 1.1623598 -0.022629607 0.735539
1.1074228 -0.0073618055 1.6591334 0.5848556 1.4153842 0.012903714 0.9948728 1.610518
1.1021299 0.8337722 1.2673391 1.0209035 1.325713 0.60196656 0.6224389 0.83176506
00000000: b53f 9c3f 2a49 7c3f 59e4 ed3e 2217 813f
00000010: 52fa 9c3f e2e8 103f b0d9 97bb bf83 9b3f
00000020: 8960 7e3f e04b 883f 9a8f ce3c 318e 6c3f
00000030: 4084 b33f 1a3d bd3e 8467 d13e ed7d 2c3f
00000040: f9e5 d13e 7a92 be3f 89a4 423f da0c 353f
00000050: 68e9 143f f807 bc3f 0ab9 993f e639 623f
00000060: 107f 0f3f 6356 943f 4402 953f 5e3b 793f
00000070: 7f03 a23f 0c8c 8b3f f149 763f cde4 2139
00000080: cd47 c43f 473f 603f 248e 553f 9a0d d13b
00000090: 41bb c83f 8f5f bf3f f7d0 d03f 40f9 5e3f
000000a0: 651a 1e3f a9db 623f 30c8 253f 4503 623f
000000b0: 8d03 1e3f 35c8 943f ba61 b9bc 494c 3c3f
000000c0: 08c0 8d3f 4d3b f1bb 7c5e d43f 19b9 153f
000000d0: 4f2b b53f 196a 533c fcaf 7e3f 7425 ce3f
000000e0: 9812 8d3f 1872 553f 2b38 a23f f7ac 823f
000000f0: f7b0 a93f 7b1a 1a3f 2858 1f3f 8eee 543f

subnet.s1.bn1.bias f4 [64]
0.58321714 -1.0576304 0.24642116 0.73720205 -0.7638427 -0.49516994 -0.56366336 1.4254868
0.34014767 0.10717943 -0.7084839 -0.96251166 0.319518 0.19543725 -0.044746395 -0.6612503
-0.39255768 1.3686488 -0.799208 -0.32974285 -0.29283658 0.6501056 -0.061144546 -0.048734087
-1.6286781 0.15847763 0.55365455 -0.8726867 0.25134158 0.695859 -0.7804264 -0.68133324
0.32756385 -0.05403186 -1.1509595 -0.60724807 0.9343891 0.13297404 -0.12901703 -0.12030612
-0.6661994 -0.8874152 0.039866757 -0.05360701 -2.142623 0.061144333 -0.57806927 -0.42637357
-0.08541945 -0.516666 0.03483752 -0.051056754 -0.12759732 -0.5733255 -0.04212449 0.114857316
-0.94483864 -0.8324049 0.4504737 0.34888375 1.2536219 -0.13396128 -1.12161 -0.6522141
00000000: b84d 153f 6f60 87bf d455 7c3e 46b9 3c3f
00000010: 328b 43bf ea86 fdbe 3e4c 10bf 5a76 b63f
00000020: d627 ae3e e480 db3d 335f 35bf 2a67 76bf
00000030: dd97 a33e b420 483e ff47 37bd b347 29bf
00000040: 52fd c8be e22f af3f e598 4cbf 0ed4 a8be
00000050: adee 95be 526d 263f b472 7abd 659d 47bd
00000060: 8678 d0bf f647 223e 4ebc 0d3f 6568 5fbf
00000070: d8af 803e d123 323f 06ca 47bf db6b 2ebf
00000080: 73b6 a73e 8350 5dbd a452 93bf 9c74 1bbf
00000090: 2034 6f3f 592a 083e 0a1d 04be 0e63 f6bd
000000a0: 0b8c 2abf a42d 63bf 534b 233d 0693 5bbd
000000b0: bc20 09c0 7b72 7a3d 59fc 13bf a34d dabe
000000c0: 65f0 aebd 3944 04bf cab1 0e3d e320 51bd
000000d0: dfa8 02be 76c5 12bf bb8a 2cbd 503a eb3d
000000e0: f2e0 71bf 7d18 55bf 7da4 e63e e4a0 b23e
000000f0: af76 a03f 252d 09be eb90 8fbf 81f7 26bf

subnet.s1.bn1.running_mean f4 [64]
0.8232384 -5.5581613 -2.2458138 0.86910516 -3.3800473 -3.5135803 -0.7456775 -0.2825421
-0.67823833 -1.0591824 -0.12095198 5.84003 0.015338773 3.9008622 -5.7763314 -1.4216021
6.6799126 0.31768775 8.2761135 1.4663413 -8.353179 -0.5804558 -0.15882932 -3.280929
-2.1994166 -0.6715443 -0.53448665 0.19568446 -0.4658265 -0.6524091 -3.1225953 1.0091572
0.39779046 -0.7633873 -1.793568 0.23566256 -0.105456814 -0.07658674 -0.4581415 2.3146505
-9.492911 12.582042 1.164784 -0.7275524 0.47486624 0.7148017 -1.0425882 -2.0865738
1.7624503 -0.47081512 0.45720702 -5.330135 -1.0957476 -0.13077033 -0.46746707 0.1435361
0.26024297 -6.5719037 -1.0576943 -0.67156744 -0.29956406 -3.0933652 -7.7029305 10.874817
00000000: c0bf 523f 75dc b1c0 6abb 0fc0 ad7d 5e3f
00000010: b252 58c0 80de 60c0 b8e4 3ebf 5ca9 90be
00000020: 07a1 2dbf 4a93 87bf acb5 f7bd 87e1 ba40
00000030: 7a4f 7b3c baa7 7940 b5d7 b8c0 0ff7 b5bf
00000040: d8c1 d540 f8a7 a23e f66a 0441 12b1 bb3f
00000050: 9fa6 05c1 c098 14bf 27a4 22be befa 51c0
00000060: 3ec3 0cc0 54ea 2bbf 1ed4 08bf 8261 483e
00000070: d080 eebe 4804 27bf 9ad8 47c0 102c 813f
00000080: 31ab cb3e 5a6d 43bf a393 e5bf 8751 713e
00000090: bef9 d7bd 82d9 9cbd 8691 eabe 3c23 1440
000000a0: f7e2 17c1 0b50 4941 a417 953f e040 3abf
000000b0: ab21 f33e 3ffd 363f 8873 85bf 6d8a 05c0
000000c0: f997 e13f ae0e f1be 0a17 ea3e 7790 aac0
000000d0: 7541 8cbf a8e8 05be d857 efbe 21fb 123e
000000e0: 913e 853e 094d d2c0 8762 87bf d8eb 2bbf
000000f0: 7660 99be b2f9 45c0 687e f6c0 40ff 2d41

subnet.s1.bn1.running_var f4 [64]
526.57904 788.1877 985.79944 547.6328 1028.828 4092.2375 4318.618 2069.0588
576.053 556.0906 4560.722 3442.1655 713.5674 2933.857 1060.3818 229.28102
5964.2812 1049.3152 2799.8618 965.0181 2294.1199 835.3233 319.38 1236.2957
6211.003 630.5033 1329.9452 2218.3206 1303.7557 442.37027 1886.7969 4222.691
329.5331 532.7951 271.44244 4439.475 732.4518 939.3914 423.08047 2830.1382
1868.8807 594.86725 355.32645 1974.758 4007.586 3138.9897 4434.197 1242.9857
1841.1143 3594.2512 314.28583 874.45337 335.5773 4182.4956 409.18777 827.21783
1385.9573 592.9472 539.4312 1471.4114 1016.38153 1285.3208 1499.8893 1129.5435
00000000: 0fa5 0344 030c 4544 2a73 7644 80e8 0844
00000010: 7f9a 8044 cdc3 7f45 f2f4 8645 f150 0145
00000020: 6403 1044 cc05 0b44 c785 8e45 a622 5745
00000030: 5064 3244 b65d 3745 388c 8444 f147 6543
00000040: 4062 ba45 162a 8344 cafd 2e45 2941 7144
00000050: eb61 0f45 b1d4 5044 a4b0 9f43 7689 9a44
00000060: 0618 c245 36a0 1d44 3f3e a644 21a5 0a45
00000070: 2ff8 a244 652f dd43 80d9 eb44 87f5 8345
00000080: 3dc4 a443 e332 0544 a2b8 8743 cdbb 8a45
00000090: ea1c 3744 0dd9 6a44 4d8a d343 36e2 3045
000000a0: 2f9c e944 81b7 1444 c9a9 b143 42d8 f644
000000b0: 6079 7a45 d62f 4445 9391 8a45 8b5f 9b44
000000c0: a823 e644 05a4 6045 9624 9d43 049d 5a44
000000d0: e5c9 a743 f7b3 8245 0998 cc43 f1cd 4e44
000000e0: a23e ad44 9f3c 1444 99db 0644 2aed b744
000000f0: 6b18 7e44 44aa a044 757c bb44 6431 8d44

subnet.res0.branch1.weight f4 [32, 64, 1, 1, 1]
0.71176004 -0.83947784 0.06911254 -0.45002502 0.26850817 -0.08437476 -0.102574125 -1.4720554
0.3284575 0.38128215 -0.12917084 0.11216406 0.4506911 -0.14570896 -0.4454283 0.2242845
-0.4320674 0.5592633 -0.02482963 0.2486905 0.005546893 -0.17625377 -0.1330637 -0.52869284
-0.21548215 0.5930839 0.3030825 0.13265702 0.5544783 0.117672965 -0.15079038 -0.002334022
-1.5892668 -0.23691343 -0.16218723 -0.08525229 0.54465497 0.66472775 0.11583998 -0.01996752
-0.0077464688 -0.1003606 0.14603895 0.71232784 -0.33489925 -1.4490501 -0.18335319 0.68325114
0.086212866 -0.009898971 0.33112866 0.023617594 -0.17114255 0.054158565 -0.414616 0.23269211
-1.1108272 -0.036491983 -1.580493 -1.315953 -0.7219794 0.60852194 -0.17390601 -0.50945276
-0.4236385 -0.2713084 0.29866052 -1.6302646 0.17213741 0.5375192 0.078780584 0.83538985
-2.1152992 -0.2235498 0.1862849 -2.0976849 -0.5408357 0.0678594 -0.13996068 0.3887565
0.1753759 0.46419215 -0.36271122 -0.6441682 -0.30411503 -0.73342305 1.0539137 -0.082286865
0.23514411 0.37481114 -0.4975977 0.3882055 0.42345503 0.48370126 0.76860315 -0.10901441
-0.13725847 -0.5144011 -0.91371053 -0.024532095 0.13362272 -0.057957552 0.5790975 -1.2013338
0.32304752 0.21787769 0.6513803 0.8431877 -0.06345608 0.21260816 0.02141395 -0.64954334
-0.27804065 -0.005841451 -0.4315304 -0.5597555 -0.5768382 -0.117237866 0.1957845 0.5240196
-0.22615582 -0.6696508 -0.20529978 -0.40215147 0.6553194 -0.07802714 0.24504218 -0.2823285
0.50892824 0.3768784 0.045831915 -1.0607989 0.40896195 -0.40197006 -0.15268311 -0.670518
-0.28618157 0.8697192 -0.16544682 -0.26707563 0.023695761 0.20194936 -0.2990779 -0.85820436
0.1874124 0.24015695 -0.21757983 0.34653956 0.31291014 -0.18864416 -0.13166942 -0.35605246
0.0012392929 0.57568157 -0.10017363 0.21743214 0.12996295 0.038227554 -0.0027242461 -0.19955249
-1.083271 0.25792912 0.026830437 -0.119236425 0.48047525 1.069673 0.27091062 -0.03647005
0.042718686 0.045764074 0.5260988 1.2109727 0.22069207 -2.0123162 0.048319917 0.39022025
0.100477256 -0.14743066 -0.58261544 0.021953832 -0.95418787 -0.16506696 0.5900058 -0.20244369
-0.7134364 -0.15636384 -1.675221 -1.2713892 0.024369635 0.32470536 -0.42686766 -0.5013325
0.84316576 -0.5537352 0.088218406 -0.80352527 0.34481236 -0.46127522 -0.09144164 0.5884021
-0.7318231 0.36925867 -0.19129355 -0.31776398 -0.88986224 0.35789934 0.18271613 -0.30827108
0.023757376 -0.8741447 -0.3105532 -0.15121508 -0.048070084 0.7152259 -0.865569 0.15321538
-0.023265814 0.004342514 -1.2109047 0.2136235 -1.4079013 -1.1749877 -0.56735426 -0.28612646
0.59780014 0.4167504 -0.24556443 -0.07224439 -0.18007533 0.8537183 0.32271567 -0.5831504
-1.0246398 0.16406696 0.22925548 -0.7761559 0.13531847 -0.20887779 -0.004937297 0.070867315
0.47381315 -0.14351194 -0.7304829 -0.06487045 0.14659326 -0.042731006 0.41992086 0.09587366
-0.26877972 -0.20159501 0.57852685 0.145466 0.56970024 0.26070008 -0.51092565 -1.0245498
00000000: e835 363f 05e8 56bf e08a 8d3d ae69 e6be
00000010: e779 893e adcc acbd 6212 d2bd 506c bcbf
00000020: 952b a83e 6a37 c33e 5c45 04be 45b6 e53d
00000030: fcc0 e63e bb34 15be 2e0f e4be d6aa 653e
00000040: f037 ddbe e12b 0f3f 8267 cbbc b9a8 7e3e
00000050: b6c2 b53b de7b 34be da41 08be 6a58 07bf
00000060: 5aa7 5cbe 59d4 173f a12d 9b3e 3ed7 073e
00000070: 4af2 0d3f 86fe f03d cb68 1abe 64f6 18bb
00000080: 186d cbbf 6f99 72be 6914 26be c198 aebd
00000090: 826e 0b3f 992b 2a3f 833d ed3d ed92 a3bc
000000a0: 17d6 fdbb dc89 cdbd 3c8b 153e 1e5b 363f
000000b0: ea77 abbe 797a b9bf f0c0 3bbe 8ce9 2e3f
000000c0: 5f90 b03d 4b2f 22bc b289 a93e af79 c13c
000000d0: fe3f 2fbe 5fd5 5d3d 8c48 d4be d746 6e3e
000000e0: 962f 8ebf 9e78 15bd 984d cabf 2671 a8bf
000000f0: a4d3 38bf 18c8 1b3f 6b14 32be 7f6b 02bf
00000100: 25e7 d8be efe8 8abe 08ea 983e 83ac d0bf
00000110: ca44 303e dc9a 093f b757 a13d 1cdc 553f
00000120: 1061 07c0 3dea 64be 78c1 3e3e 7840 06c0
00000130: 3574 0abf def9 8a3d da51 0fbe 180b c73e
00000140: bd95 333e 98aa ed3e 49b5 b9be 35e8 24bf
00000150: f7b4 9bbe 9dc1 3bbf a5e6 863f 0486 a8bd
00000160: 9ec9 703e 3fe7 bf3e 20c5 febe dfc2 c63e
00000170: 19cf d83e b1a7 f73e 2dc3 443f f242 dfbd
00000180: 7c8d 0cbe caaf 03bf efe8 69bf 88f7 c8bc
00000190: 65d4 083e e664 6dbd bc3f 143f 4ec5 99bf
000001a0: 7c66 a53e 541b 5f3e dcc0 263f 26db 573f
000001b0: 43f5 81bd f4b5 593e 4f6c af3c 7948 26bf
000001c0: 585b 8ebe a569 bfbb 8df1 dcbe 234c 0fbf
000001d0: abab 13bf 681a f0bd bb7b 483e 2626 063f
000001e0: 6495 67be 3c6e 2bbf 1b3a 52be cce6 cdbe
000001f0: 03c3 273f b1cc 9fbd 56ec 7a3e 5c8d 90be
00000200: 1f49 023f 35f6 c03e 3fba 3b3d 42c8 87bf
00000210: 7663 d13e 05cf cdbe f658 1cbe 11a7 2bbf
00000220: 6486 92be eba5 5e3f e46a 29be 23be 88be
00000230: 9d1d c23c d0cb 4e3e bd20 99be 48b3 5bbf
00000240: 09e9 3f3e b4eb 753e 3fcd 5ebe a26d b13e
00000250: c235 a03e ef2b 41be 59d4 06be 824c b6be
00000260: c56f a23a de5f 133f d527 cdbd 88a6 5e3e
00000270: 0215 053e 7f94 1c3d 4489 32bb 7d57 4cbe
00000280: a0a8 8abf 490f 843e 81cb db3c 3a32 f4bd
00000290: da00 f63e 0beb 883f ccb4 8a3e 9f61 15bd
000002a0: caf9 2e3d 1c73 3b3d 69ae 063f 2701 9b3f
000002b0: 1afd 613e cac9 00c0 1beb 453d f3ca c73e
000002c0: 05c7 cd3d 10f8 16be 4926 15bf 86d8 b33c
000002d0: a845 74bf 5007 29be 9f0a 173f 664d 4fbe
000002e0: c5a3 36bf d81d 20be a46d d6bf e2bc a2bf
000002f0: d4a2 c73c c83f a63e 668e dabe 5457 00bf
00000300: b6d9 573f 97c1 0dbf daab b43d d5b3 4dbf
00000310: 3f8b b03e 442c ecbe c145 bbbd 85a1 163f
00000320: c258 3bbf 790f bd3e 75e2 43be f6b1 a2be
00000330: 03ce 63bf 953e b73e f019 3b3e b5d5 9dbe
00000340: d49e c23c f2c7 5fbf d400 9fbe 20d8 1abe
00000350: 23e5 44bd 0b19 373f ee95 5dbf 7ee4 1c3e
00000360: f397 bebc a64b 8e3b edfe 9abf 1ec0 5a3e
00000370: 1c36 b4bf ff65 96bf 213e 11bf 2b7f 92be
00000380: 6e09 193f 4f60 d53e 3e75 7bbe def4 93bd
00000390: ab65 38be 488d 5a3f fd3a a53e 5849 15bf
000003a0: 6627 83bf 2b01 283e f3c1 6a3e 27b2 46bf
000003b0: ed90 0a3e 0fe4 55be 0dc9 a1bb e222 913d
000003c0: a397 f23e cbf4 12be ed00 3bbf ccda 84bd
000003d0: 8b1c 163e b506 2fbd deff d63e 6959 c43d
000003e0: 7f9d 89be ec6e 4ebe 561a 143f 0af5 143e
000003f0: e0d7 113f 7b7a 853e 06cc 02bf 7324 83bf

subnet.res0.branch1_bn.weight f4 [32]
1.7953262 2.0886848 1.4424993 0.9828608 2.39777 1.5922432 0.78157 1.5725654
1.0929153 1.2039131 2.2471404 1.2891858 0.6198989 1.9233788 1.0379267 2.226667
2.1883695 1.7600175 3.1277478 1.9869461 1.9150803 1.6303618 2.3468547 1.4237248
1.1718385 2.0858974 1.5565614 1.6867083 1.774862 0.94964325 1.5327259 0.9505037
00000000: 40cd e53f 03ad 0540 d1a3 b83f c49c 7b3f
00000010: 1075 1940 a0ce cb3f f914 483f d349 c93f
00000020: a6e4 8b3f d319 9a3f 26d1 0f40 0a04 a53f
00000030: b2b1 1e3f 4731 f63f c8da 843f b681 0e40
00000040: 3f0e 0c40 4148 e13f 052d 4840 4054 fe3f
00000050: 5a21 f53f b2af d03f de32 1640 9d3c b63f
00000060: cefe 953f 587f 0540 673d c73f 0fe6 d73f
00000070: ae2e e33f d21b 733f 5d30 c43f 3654 733f

subnet.res0.branch1_bn.bias f4 [32]
-0.20468713 -0.41495004 -0.55359155 -0.43817553 -0.8398868 -0.6042765 -0.017573802 -0.13701148
-0.25400645 0.04947164 -0.7257176 0.14912052 -0.40432963 -0.9047721 -0.2561011 -0.6613742
-0.24805778 -0.75131035 -0.123015545 -0.6039132 -0.18829305 -0.5490923 -1.119048 -0.83436495
-0.90930307 -0.22458145 -1.1955833 -0.77271956 -0.32307687 -0.035251968 -0.772091 0.06464558
00000000: 8199 51be 5574 d4be 2db8 0dbf 8b58 e0be
00000010: d202 57bf ddb1 1abf eff6 8fbc bd4c 0cbe
00000020: 220d 82be c6a2 4a3d a1c8 39bf 0db3 183e
00000030: 4b04 cfbe 259f 67bf af1f 83be d24f 29bf
00000040: dc02 7ebe e055 40bf 93ef fbbd 0e9a 1abf
00000050: e5cf 40be 5091 0cbf f73c 8fbf f198 55bf
00000060: 16c8 68bf aef8 65be e008 99bf f3d0 45bf
00000070: 556a a5be 5e64 10bd c1a7 45bf e764 843d

subnet.res0.branch1_bn.running_mean f4 [32]
-4.5675154 -2.742755 -5.2774014 -2.7456968 -2.6333866 -4.3606615 -1.6137174 -2.5605555
2.379276 -1.0582569 -4.922261 -1.7166843 -1.8160552 -2.492497 -6.442006 -2.7113469
-0.24457192 1.1363491 -0.93722904 -1.1676716 -1.06241 -4.3617826 -0.6039244 -5.714138
-2.9869423 -4.8078628 -6.239594 -0.5993852 -2.232855 -2.5899265 -2.5837884 0.6441719
00000000: 1629 92c0 4c89 2fc0 79e0 a8c0 7fb9 2fc0
00000010: 6889 28c0 8a8a 8bc0 4b8e cebf 24e0 23c0
00000020: 0f46 1840 f674 87bf 2a83 9dc0 50bc dbbf
00000030: 7f74 e8bf 1285 1fc0 ea24 cec0 b586 2dc0
00000040: 1071 7abe e373 913f 3eee 6fbf 4376 95bf
00000050: 0dfd 87bf b993 8bc0 ca9a 1abf 38da b6c0
00000060: 102a 3fc0 03da 99c0 c1aa c7c0 4f71 19bf
00000070: 19e7 0ec0 5bc1 25c0 ca5c 25c0 73e8 243f

subnet.res0.branch1_bn.running_var f4 [32]
14.308262 18.175465 18.556229 11.111557 16.168291 11.739583 11.425576 7.8125567
6.365038 12.537092 15.355309 9.193294 11.940742 14.624721 29.741943 17.405216
8.232759 8.173039 21.539368 10.06627 11.646143 13.788234 11.583521 11.957687
16.641237 17.49684 32.308865 15.970072 8.738331 9.958514 17.505188 11.441925
00000000: a4ee 6441 5a67 9141 2873 9441 f0c8 3141
00000010: a958 8141 55d5 3b41 29cf 3641 7700 fa40
00000020: 64ae cb40 ee97 4841 58af 7541 bb17 1341
00000030: 470d 3f41 dbfe 6941 80ef ed41 e23d 8b41
00000040: 62b9 0341 c5c4 0241 a050 ac41 710f 2141
00000050: 9a56 3a41 9b9c 5c41 1a56 3941 b052 3f41
00000060: 4121 8541 87f9 8b41 473c 0142 6a85 7f41
00000070: 34d0 0b41 1356 1f41 a00a 8c41 2012 3741

subnet.res0.branch2.a.weight f4 [8, 64, 1, 1, 1]
0.42322302 -0.019141605 0.27958244 0.71627533 0.13293049 0.21868291 0.14383028 -1.1938993
0.8161487 0.26841292 0.07195284 0.54371655 1.005003 0.045468893 0.04703501 -0.6483458
0.17761546 0.16292778 -0.9214188 -0.16865149 0.023718854 0.20258895 -1.1266125 0.46040273
0.10747265 0.42592022 0.79505295 0.27921957 0.40912116 -0.34541532 -0.2475981 0.14912672
-1.533169 0.21298097 -1.7358842 0.11767015 0.5934075 0.8805184 -0.87497884 -0.13324462
0.1895841 -0.098604545 -0.55543727 -0.1419501 -0.03718906 -0.49996555 0.09027477 0.40056393
0.38343975 -0.008594048 0.5571113 -0.69652706 -0.29927793 0.11631265 0.32642162 -0.055803753
-1.2235368 -0.038005978 -0.8823981 -0.24104676 -0.63968784 -0.06563156 -0.5989795 -0.57568413
0.035525244 -0.08529289 -0.19509047 -1.9455997 -0.22399463 0.29709905 0.06746338 0.5104561
-1.5503879 -0.08269579 0.023986794 -0.90317315 -0.31974518 -0.13490577 -0.17876507 0.9930939
-0.30222026 0.59765685 -0.13322297 -0.19191617 -0.11473363 -1.0365993 0.8445412 0.12440518
0.040905036 0.35118547 -0.67688376 -0.012926599 0.24418923 0.98653823 -0.024659371 0.108869515
-0.20385958 -0.37989384 -0.14275487 0.14881591 0.2708729 0.023463346 0.69565946 -0.71914905
0.09874525 -0.015663084 0.8588791 1.1594292 -0.52044934 -0.1985386 0.13336366 -0.7459967
-0.08804932 0.10702027 0.01498693 -0.14877889 -0.07500586 0.18218823 0.36325815 0.5912892
0.5394373 -0.029935611 -0.98806417 -0.11107865 0.93124235 -0.7835922 -0.4503498 0.2536554
0.10198161 -1.7230915 0.04173815 0.07050206 1.4248537 0.058658313 -0.15282473 0.15320878
0.021658793 0.24060817 0.078805335 -1.8373836 0.26319522 0.8490464 -0.6780698 0.08166893
-0.5204685 0.5014297 -1.4663088 0.8816164 -1.9158818 -0.015098958 0.12883411 0.93644685
-0.49842027 0.6134735 0.12464708 1.7365695 -0.12968516 0.52817464 -0.8845286 -0.020268204
0.005457808 0.688012 -0.73585576 -0.10988725 -0.23279396 0.26644602 0.29690242 -0.97194254
-1.6536914 0.64162475 -0.2086718 0.078654274 -1.113712 -0.32530713 -0.14212579 -0.033089735
-0.25241983 0.00069632096 -0.56818056 -1.1204108 -0.13679446 -0.22651082 -0.21089146 0.35452458
-1.7163881 0.6165958 0.33400953 0.20109305 0.3075056 0.70967615 -2.1475031 -1.2842066
-0.5201927 0.31148174 0.2320453 -0.18829967 -0.38368234 -0.07954688 -0.07811963 0.23171897
-1.3836433 0.54773396 -0.1255603 0.4832734 -0.8471985 -0.11092125 0.30014163 -0.85082227
0.060498595 -0.07293455 -0.39682648 -0.5713349 0.5033513 0.4263899 0.14400525 0.30184627
-0.11413743 -1.4076942 -1.591807 -0.15489514 0.10656346 -0.7196844 -0.012785369 -0.035538316
0.6454831 0.39109915 -0.033146698 -0.070417024 0.58926725 0.8295698 -0.51433814 -1.4633484
0.18440162 0.037262194 -0.34697416 -0.583575 -0.4074963 0.5516556 0.07615445 0.17868066
0.52049655 0.0009829655 0.075339496 -0.43271896 0.22660801 -0.10958753 -0.25643653 -0.66414636
-0.27264905 -0.21005346 0.88621366 0.59257793 -0.17738475 0.121795535 0.50234485 0.24991964
00000000: b0b0 d83e dbce 9cbc 6e25 8f3e d25d 373f
00000010: ee1e 083e 6aee 5f3e 3f48 133e b1d1 98bf
00000020: 1fef 503f 6b6d 893e 035c 933d 0231 0b3f
00000030: f0a3 803f 973d 3a3d c8a7 403d fef9 25bf
00000040: d4e0 353e 8ad6 263e 1ae2 6bbf fab2 2cbe
00000050: 0b4e c23c 7a73 4f3e d734 90bf e8b9 eb3e
00000060: 9f1a dc3d 3712 da3e 9788 4b3f def5 8e3e
00000070: 5478 d13e 47da b0be 5b8a 7dbe adb4 183e
00000080: e23e c4bf af17 5a3e 7431 debf 0cfd f03d
00000090: 8ee9 173f a769 613f 9dfe 5fbf 4771 08be
000000a0: 5622 423e 2ef1 c9bd 2331 0ebf 5e5b 11be
000000b0: 8e53 18bd 7cfb ffbe fbe1 b83d b716 cd3e
000000c0: 3752 c43e 0dce 0cbc d99e 0e3f 994f 32bf
000000d0: f53a 99be 5435 ee3d bc20 a73e 7a92 64bd
000000e0: db9c 9cbf 28ac 1bbd d8e4 61bf f6d4 76be
000000f0: 95c2 23bf d769 86bd b856 19bf 0960 13bf
00000100: eb82 113d 0aae aebd ccc5 47be 6909 f9bf
00000110: d95e 65be 5e1d 983e 3e2a 8a3d 40ad 023f
00000120: 1c73 c6bf 695c a9bd f47f c43c 5b36 67bf
00000130: a4b5 a3be bd24 0abe 310e 37be 673b 7e3f
00000140: 9dbc 9abe 0a00 193f 9a6b 08be ac85 44be
00000150: 77f9 eabd 49af 84bf da33 583f 25c8 fe3d
00000160: 0a8c 273d 95ce b33e 4148 2dbf 16ca 53bc
00000170: be0c 7a3e c58d 7c3f 7302 cabc fbf6 de3d
00000180: 91c0 50be 7281 c2be 552e 12be 3363 183e
00000190: daaf 8a3e 3436 c03c bd16 323f 271a 38bf
000001a0: f33a ca3d de4f 80bc 80df 5b3f 2d68 943f
000001b0: 2b3c 05bf b44d 4bbe 7c90 083e a4f9 3ebf
000001c0: 3453 b4bd 712d db3d be8b 753c 7e59 18be
000001d0: ac9c 99bd 8d8f 3a3e f9fc b93e bb5e 173f
000001e0: 9018 0a3f 873b f5bc c6f1 7cbf 347d e3bd
000001f0: e665 6e3f 8099 48bf 4094 e6be 1fdf 813e
00000200: bcdb d03d 438e dcbf 9ff5 2a3d 6263 903d
00000210: 9b61 b63f b343 703d 167e 1cbe c3e2 1c3e
00000220: c86d b13c fd61 763e b164 a13d 632f ebbf
00000230: 86c1 863e 1b5b 593f fb95 2dbf 0a42 a73d
00000240: 6c3d 05bf b25d 003f 02b0 bbbf 9db1 613f
00000250: 9d3b f5bf 9f61 77bc 17ed 033e fbba 6f3f
00000260: f130 ffbe 990c 1d3f f846 ff3d e947 de3f
00000270: 30cc 04be 7436 073f 7770 62bf 8109 a6bc
00000280: 69d7 b23b 8e21 303f 0b61 3cbf 910c e1bd
00000290: 8a61 6ebe 9d6b 883e 9803 983e 3ad1 78bf
000002a0: 29ac d3bf 8541 243f 0fae 55be 7e15 a13d
000002b0: 1d8e 8ebf a88e a6be 6c89 11be 1a89 07bd
000002c0: 2c3d 81be 4f89 363a 4874 11bf 9f69 8fbf
000002d0: d913 0cbe 74f2 67be eef3 57be 3f84 b53e
000002e0: 9bb2 dbbf 39d9 1d3f 4c03 ab3e 56eb 4d3e
000002f0: 6071 9d3e 56ad 353f b170 09c0 e260 a4bf
00000300: 592b 05bf 897a 9f3e 489d 6d3e a1d1 40be
00000310: 0372 c4be 7ae9 a2bd 2ffd 9fbd bd47 6d3e
00000320: 391b b1bf 4b38 0c3f e192 00be 9c6f f73e
00000330: 00e2 58bf ae2a e3bd 2aac 993e 7dcf 59bf
00000340: 60cd 773d b65e 95bd d72c cbbe 0143 12bf
00000350: a1db 003f c74f da3e 1d76 133e 988b 9a3e
00000360: e3c0 e9bd 532f b4bf 55c0 cbbf d59c 1ebe
00000370: f13d da3d 3d3d 38bf b979 51bc a090 11bd
00000380: 613e 253f 263e c83e d5c4 07bd cd36 90bd
00000390: 38da 163f b05e 543f aaab 03bf 004f bbbf
000003a0: c7d3 3c3e 3ea0 183d 99a6 b1be 2c65 15bf
000003b0: 5ba3 d0be 4d39 0d3f ddf6 9b3d 10f8 363e
000003c0: 433f 053f d9d6 803a 984b 9a3d 578d ddbe
000003d0: ee0b 683e 6d6f e0bd a64b 83be 7f05 2abf
000003e0: a898 8bbe 4118 57be e6de 623f 30b3 173f
000003f0: 59a4 35be f06f f93d ac99 003f efea 7f3e

subnet.res0.branch2.a_bn.weight f4 [8]
1.5835952 1.2293491 0.64523596 1.7938871 1.0345125 1.0488472 0.8773241 1.9784971
00000000: 3fb3 ca3f 505b 9d3f 2f2e 253f 189e e53f
00000010: e86a 843f a040 863f 5098 603f 653f fd3f

subnet.res0.branch2.a_bn.bias f4 [8]
0.12649086 0.5503362 0.50680983 0.6007888 -0.50678694 -0.19638479 0.43892378 -0.0622748
00000000: d286 013e d5e2 0c3f 4abe 013f 4bcd 193f
00000010: cabc 01bf 1819 49be 9eba e03e dc13 7fbd

subnet.res0.branch2.a_bn.running_mean f4 [8]
-1.0941375 -0.35510677 4.083666 -2.9009173 -0.21255979 -1.1558051 1.1041857 -3.6502035
00000000: b30c 8cbf 8ed0 b5be 64ad 8240 a1a8 39c0
00000010: 46a9 59be 6cf1 93bf f555 8d3f ef9c 69c0

subnet.res0.branch2.a_bn.running_var f4 [8]
13.139672 11.168398 4.470016 11.38066 6.6846185 10.697743 16.432112 10.808481
00000000: 193c 5241 c2b1 3241 5f0a 8f40 2f17 3641
00000010: 65e8 d540 f529 2b41 f774 8341 8aef 2c41

subnet.res0.branch2.b.weight f4 [8, 8, 1, 3, 3]
0.65059596 0.53870463 0.19410826 -0.27188262 -0.7667524 -0.4255208 -0.7883691 -0.047833502
0.41397944 0.002689495 -0.09666845 0.47894433 0.2420415 0.98221403 0.39103135 -1.9872729
-1.1371013 -1.657879 -1.0541147 -0.550409 -0.5753489 0.56124306 1.1801617 0.7204771
-0.13685821 0.1475213 -0.08241168 0.16841796 0.18539786 0.107307576 0.022714337 0.043820176
-0.31844392 0.59288335 0.6725648 0.45850834 1.4274275 0.047645498 0.25345197 0.36921772
-0.8825617 0.029845778 -0.08470004 -0.017663116 0.87326515 -0.025689153 0.47814363 0.8997748
-0.5729311 -0.5863311 -0.60953504 -0.5095832 -0.118311934 0.033684958 -0.32782874 -0.05567061
-0.14397708 -0.1861246 0.4069701 0.19950007 -0.2418372 -0.5251317 -0.04303485 -0.5950553
0.20323247 -0.740704 -0.12397541 1.6479713 0.53059393 -1.8638049 -0.42263788 -1.438854
-0.15606232 -0.35338035 -1.1952821 0.07412706 0.27278575 -0.58687556 -0.116040975 0.19901651
-0.99827343 -0.03410321 0.14046364 0.54579985 0.35522157 -0.15228342 0.9655557 0.52159274
-0.12305972 0.66583365 -0.4737447 -0.32748288 -0.07149928 0.070592366 -0.0006419869 0.15748808
-0.435739 -0.2424905 -0.2411279 1.2078023 -0.21944417 0.90345174 0.11601055 -1.2492042
0.2384108 0.08583271 0.10707795 1.0027591 0.62799335 0.28247717 0.42283058 -0.012890127
-0.2557784 0.20207505 0.10162259 -0.5636882 -0.22034171 -1.7186563 -0.8091014 0.026786782
-1.2291944 -1.2605615 -0.5825494 -0.9631513 -0.893893 0.19672793 -0.4971793 -0.1759328
-0.5755711 -0.074518405 0.80503273 0.20779409 -0.26194176 0.24355704 -0.7464296 -1.6378179
-0.85071146 -1.1701494 -0.40670568 0.17370163 -0.5296992 0.637234 0.30919626 -0.3361536
-0.17475468 0.33559826 0.20774545 -0.24931754 2.031766 0.36206785 -1.6465592 -0.23247023
-2.433605 -0.4518101 0.018168395 -0.25131106 -0.29877663 -0.2366697 -0.19428764 0.6901057
0.4273269 1.1301999 -0.1320772 -0.018815236 0.55056626 0.49442893 -0.28229117 0.07211889
0.17741984 -0.10358512 0.3114382 0.57362014 -0.45523125 0.37671807 0.24558312 -1.3443605
-0.049333148 1.3613888 -0.38055262 1.2969631 0.011528899 -0.076512 0.042717814 0.0141166765
-0.18398772 -0.5054163 -0.6922115 -0.29282984 -0.41791725 0.5346276 0.18213148 0.2101405
0.27280277 0.2942236 0.29593354 0.26382622 -0.7651295 -1.3046725 -0.28030565 0.022583338
0.11928054 0.24590527 0.4870227 0.53804445 -0.37213358 0.008151344 -0.89335316 -0.040113635
0.46480548 0.11552772 -0.11436551 1.1338403 0.22836989 -1.189228 -0.34914795 -0.6214304
0.20078322 0.056423157 0.78633267 -0.32443404 -0.022134531 0.31708208 0.026590819 0.24768813
-0.82097465 0.26543054 0.15389939 0.6563828 0.21229674 -0.5352859 0.11903758 0.25320327
-0.70990515 -0.07316679 -0.22921848 0.11788967 0.45885792 0.05752782 0.15808932 0.22171904
0.37955198 -0.18091111 -0.37602237 -0.36984086 -0.62429446 0.7585124 -0.3878909 -0.20500834
0.8122789 -0.36544073 -0.34725508 0.47335488 -0.7722965 -0.1076614 0.12970915 -1.0676413
00000000: 758d 263f 8ce8 093f 51c4 463e 3334 8bbe
00000010: e349 44bf dddd d9be 8fd2 49bf 10ed 43bd
00000020: 1df5 d33e 3d42 303b 1cfa c5bd 3138 f53e
00000030: bad9 773e 6172 7b3f 4335 c83e f55e febf
00000040: 898c 91bf 6135 d4bf 3bed 86bf 9be7 0cbf
00000050: 114a 13bf a0ad 0f3f 8a0f 973f 3071 383f
00000060: 8f24 0cbe d30f 173e 74c7 a8bd c275 2c3e
00000070: f0d8 3d3e 13c4 db3d 6b13 ba3c c97c 333d
00000080: 150b a3be 34c7 173f 352d 2c3f 9bc1 ea3e
00000090: f2b5 b63f ed27 433d 75c4 813e 1b0a bd3e
000000a0: 90ef 61bf 227f f43c 3777 adbd 3db2 90bc
000000b0: 4e8e 5f3f 0f72 d2bc 3ecf f43e a457 663f
000000c0: 9dab 12bf cc19 16bf 7d0a 1cbf 0b74 02bf
000000d0: 874d f2bd 3df9 093d 2bd9 a7be de06 64bd
000000e0: ba6e 13be 7297 3ebe 635e d03e bf49 4c3e
000000f0: 2ca4 77be 086f 06bf 5045 30bd 8b55 18bf
00000100: 2c1c 503e c79e 3dbf d2e6 fdbd b9f0 d23f
00000110: 01d5 073f 2991 eebf fe63 d8be 5e2c b8bf
00000120: cdce 1fbe 45ee b4be 01ff 98bf eecf 973d
00000130: 93aa 8b3e 7a3d 16bf e4a6 edbd fcca 4b3e
00000140: d98e 7fbf cfaf 0bbd b3d5 0f3e 8ab9 0b3f
00000150: 9adf b53e 2ff0 1bbe a92e 773f 1a87 053f
00000160: bc06 fcbd 1374 2a3f aa8e f2be d6ab a7be
00000170: 376e 92bd bb92 903d 034b 28ba 8e44 213e
00000180: 2f19 dfbe 6e4f 78be 3bea 76be 4499 9a3f
00000190: f9b5 60be 9d48 673f f096 ed3d ece5 9fbf
000001a0: f621 743e 0fc9 af3d af4b db3d 695a 803f
000001b0: 2cc4 203f d9a0 903e 407d d83e 1c31 53bc
000001c0: 63f5 82be c3ec 4e3e 811f d03d df4d 10bf
000001d0: 42a1 61be eefc dbbf 4521 4fbf f46f db3c
000001e0: 3e56 9dbf 145a a1bf f521 15bf 1591 76bf
000001f0: 2cd6 64bf 0c73 493e 498e febe ba27 34be
00000200: a158 13bf 1b9d 98bd a016 4e3f f9c7 543e
00000210: 3b1d 86be 0467 793e 0316 3fbf 04a4 d1bf
00000220: 3ac8 59bf 75c7 95bf ba3b d0be d7de 313e
00000230: 5e9a 07bf c421 233f f94e 9e3e 531c acbe
00000240: e4f2 32be 89d3 ab3e 39bb 543e 194d 7fbe
00000250: 7408 0240 f560 b93e 74c2 d2bf ad0c 6ebe
00000260: 2fc0 1bc0 a753 e7be e3d5 943c d8ab 80be
00000270: 40f9 98be 8b59 72be 57f3 46be c4aa 303f
00000280: 97ca da3e 64aa 903f 3f3f 07be 6922 9abc
00000290: e9f1 0c3f ca25 fd3e 7888 90be 12b3 933d
000002a0: 8cad 353e 6f24 d4bd d474 9f3e c5d8 123f
000002b0: 1214 e9be 31e1 c03e 247a 7b3e 0114 acbf
000002c0: 8e11 4abd fd41 ae3f cbd7 c2be e302 a63f
000002d0: b5e3 3c3c 53b2 9cbd e0f8 2e3d a249 673c
000002e0: 4767 3cbe f662 01bf c634 31bf cbed 95be
000002f0: 40f9 d5be 5bdd 083f ad80 3a3e 122f 573e
00000300: ceac 8b3e 7aa4 963e 9a84 973e 3b14 873e
00000310: 87df 43bf 82ff a6bf 3984 8fbe b100 b93c
00000320: 5b49 f43d 97ce 7b3e 0a5b f93e 48bd 093f
00000330: 4b88 bebe 378d 053c cbb2 64bf 324e 24bd
00000340: fcfa ed3e cc99 ec3d 7738 eabd ae21 913f
00000350: ccd9 693e a038 98bf 85c3 b2be 1016 1fbf
00000360: 1e9a 4d3e f81b 673d 194d 493f 381c a6be
00000370: 7a53 b5bc 9558 a23e fdd4 d93c f5a1 7d3e
00000380: 652b 52bf 83e6 873e cd97 1d3e b408 283f
00000390: 5164 593e 7f08 09bf fac9 f33d dca3 813e
000003a0: 58bc 35bf 78d8 95bd 40b8 6abe 2470 f13d
000003b0: 6def ea3e 4ba2 6b3d 2be2 213e 510a 633e
000003c0: a354 c23e c340 39be 0186 c0be c85b bdbe
000003d0: c3d1 1fbf de2d 423f a399 c6be b5ed 51be
000003e0: 83f1 4f3f 0c1b bbbe 6bcb b1be 925b f23e
000003f0: 39b5 45bf 957d dcbd 7ad2 043e 78a8 88bf

subnet.res0.branch2.b_bn.weight f4 [8]
1.0587851 1.1438882 1.072566 1.4175938 1.62491 1.0852233 1.445918 1.5649675
00000000: 4586 873f ee6a 923f d849 893f b773 b53f
00000010: 0dfd cf3f 99e8 8a3f d713 b93f db50 c83f

subnet.res0.branch2.b_bn.bias f4 [8]
-0.121081054 -0.4298332 0.25068372 -0.3662383 -0.2659219 0.50464225 -0.20596391 -0.765593
00000000: 58f9 f7bd 1913 dcbe 9e59 803e 9683 bbbe
00000010: ea26 88be 3c30 013f 34e8 52be e7fd 43bf

subnet.res0.branch2.b_bn.running_mean f4 [8]
-2.1432712 -2.4202352 1.1270827 -2.7099004 -2.8442438 4.731603 -0.93465513 12.92263
00000000: 5b2b 09c0 22e5 1ac0 3f44 903f 026f 2dc0
00000010: 1708 36c0 4b69 9740 8f45 6fbf 18c3 4e41

subnet.res0.branch2.b_bn.running_var f4 [8]
15.5005245 22.527733 13.631508 24.331137 12.0048685 13.377569 11.620829 19.308277
00000000: 2602 7841 cc38 b441 a81a 5a41 2ba6 c241
00000010: f113 4041 860a 5641 eaee 3941 5a77 9a41

subnet.res0.branch2.c.weight f4 [32, 8, 1, 1, 1]
0.12644747 -0.1735758 -0.7185735 0.17975003 0.8509733 -0.046838064 0.5715778 -1.4182441
-1.3735645 -0.025945894 1.1060386 0.18154661 -0.24978283 -0.25906017 0.4472332 -0.57620096
-1.8721887 -0.68433684 -0.53418213 0.94909525 -0.055640183 -0.2195241 -0.1584399 -0.43889862
-1.2452781 0.9435276 0.9162838 -0.23602496 0.1804391 -0.44181904 -1.4172797 0.0386013
-0.62753713 1.2222005 -0.14986612 0.92522424 0.12094019 -0.9799605 0.7116729 -0.3521803
0.6215903 0.40671697 -0.20831636 0.03855851 0.97931236 -0.7703543 -0.5596592 -0.7541188
0.29328898 0.8741588 0.03346881 -1.0830637 -0.85159695 0.9770481 -0.4515305 -0.8390729
0.20366229 -0.2382515 -0.72516495 0.53349626 0.5351215 -1.6773329 -0.048093904 -0.44750798
0.46245116 -1.0119717 -1.1582648 0.5242822 -1.0297263 -0.6453707 -0.061125435 -0.11814267
0.46298352 0.5326211 0.30124062 -2.1173491 -0.47861046 0.385596 -1.2367021 -0.91572905
0.5475197 -0.13053973 -0.5622793 0.09556369 0.75930977 -0.73535126 0.82604396 -0.9014943
-2.0155575 0.17524381 -0.7085324 -0.4915023 0.30584332 0.5836346 0.2522326 -0.30486506
0.51143456 -0.87825584 -0.6121191 -0.03150959 -1.409431 -0.5167261 0.39805537 -0.038985297
-0.31290624 0.026852628 1.6375297 -0.20338088 -0.58595496 0.028395632 0.0040221205 -0.4555915
0.468429 -0.05030465 -1.8080384 -0.7976098 -0.1633702 0.6427445 0.24839954 -0.16644782
-0.24938807 0.9393822 0.6062147 1.6702342 -0.37084985 0.041539513 -0.21312153 -0.7678777
-0.76261747 -0.6227947 0.05831747 -0.29446033 0.99388385 -0.9808478 -0.0987663 -0.374897
-1.4672494 1.6083612 0.12367501 0.6358544 0.30324522 -0.16277657 0.18662533 -0.23557542
0.14694872 -0.3259498 -0.339456 1.3289002 0.13855971 -0.35469392 1.103342 -1.020431
-0.8334132 -0.19528513 -0.56124455 -0.12288363 0.71939516 -1.221825 0.4142317 -0.41892233
0.4544975 1.0194964 -0.42176 0.13509148 0.9043464 -0.8926532 0.16529633 -0.50871915
0.6673429 0.19580181 -0.28750914 0.11618405 0.82110316 -0.7960751 -0.37749124 -1.029244
0.20137408 0.107250854 -0.32907555 0.64674264 0.92312527 -1.4837395 0.40797076 -0.6238872
-0.2088428 0.32740158 -0.5101118 0.12649126 -0.86737996 -0.52851796 0.37804437 1.2540406
0.5699733 0.35713616 0.252533 -0.44615155 0.888843 -0.89483875 -0.92321086 -0.41060168
0.41631922 0.16715495 -0.017566381 -0.38217545 0.42302755 0.34202597 1.191688 -1.3730061
0.08428724 -1.3599645 -1.1192608 0.14630842 0.008921712 -0.19333741 -1.4782327 0.30851087
-0.9391755 -0.5456489 0.09933772 0.37331724 0.50844973 -0.35623038 0.8790041 -0.9662335
0.36475602 -0.070519336 -0.39373696 -0.5608833 1.0944201 -0.9990087 -0.45640332 -0.64939153
-0.8813231 0.09639452 -0.26168483 -1.7167039 0.6390114 -0.19880438 -0.7616626 -0.5550967
0.13460952 0.11247197 0.31223765 0.26749453 0.87412536 -0.859324 0.28665647 -1.195213
0.038914565 -0.81387234 0.038230423 -0.18279609 0.22401707 0.44266492 -2.2580547 -0.85196483
00000000: 727b 013e dbbd 31be 6ff4 37bf 6410 383e
00000010: 63d9 593f 45d9 3fbd ec52 123f 0689 b5bf
00000020: f6d0 afbf 7c8c d4bc ac92 8d3f 5be7 393e
00000030: 12c7 7fbe 89a3 84be c0fb e43e e881 13bf
00000040: e1a3 efbf b330 2fbf 29c0 08bf e8f7 723f
00000050: f6e6 63bd edca 60be 123e 22be 52b7 e0be
00000060: 4665 9fbf 068b 713f 9391 6a3f 87b0 71be
00000070: 07c5 383e 1b36 e2be 6c69 b5bf 661c 1e3d
00000080: 46a6 20bf 1171 9c3f 8176 19be 7fdb 6c3f
00000090: 7eaf f73d b1de 7abf 3230 363f fa50 b4be
000000a0: 8b20 1f3f 353d d03e e250 55be 87ef 1d3d
000000b0: 37b4 7a3f f035 45bf d345 0fbf ee0d 41bf
000000c0: f929 963e dfc8 5f3f 9716 093d d5a1 8abf
000000d0: 4202 5abf d31f 7a3f 012f e7be 7bcd 56bf
000000e0: d98c 503e 34f8 73be 69a4 39bf 3693 083f
000000f0: b9fd 083f d8b2 d6bf 1dfe 44bd c41f e5be
00000100: 66c6 ec3e 4a88 81bf 0542 94bf 5c37 063f
00000110: 12ce 83bf 0437 25bf aa5e 7abd c9f4 f1bd
00000120: 2d0c ed3e db59 083f 363c 9a3e a682 07c0
00000130: 6e0c f5be d76c c53e 414c 9ebf 386d 6abf
00000140: 402a 0c3f 35ac 05be 89f1 0fbf e5b6 c33d
00000150: 2062 423f fb3f 3cbf 9e77 533f 55c8 66bf
00000160: e5fe 00c0 1d73 333e 6162 35bf 31a6 fbbe
00000170: 7f97 9c3e 1469 153f a224 813e 4617 9cbe
00000180: 60ed 023f 60d5 60bf d6b3 1cbf 3310 01bd
00000190: 3c68 b4bf 2948 04bf eacd cb3e 0caf 1fbd
000001a0: 3f35 a0be 0bfa db3c 939a d13f 1443 50be
000001b0: 2501 16bf f59d e83c fecb 833b 4a43 e9be
000001c0: edd5 ef3e 400c 4ebd cd6d e7bf 2830 4cbf
000001d0: 854a 27be e78a 243f 735c 7e3e 4c71 2abe
000001e0: 965f 7fbe 5a7b 703f e330 1b3f 3cca d53f
000001f0: 08e0 bdbe 5625 2a3d 883c 5abe a293 44bf
00000200: e63a 43bf 796f 1fbf 4dde 6e3d 81c3 96be
00000210: 2c6f 7e3f d718 7bbf fc45 cabd 80f2 bfbe
00000220: d4ce bbbf c8de cd3f 5349 fd3d 5bc7 223f
00000230: f542 9b3e e7ae 26be b61a 3f3e af3a 71be
00000240: ba79 163e e4e2 a6be 2dcd adbe 6719 aa3f
00000250: 99e2 0d3e 719a b5be 503a 8d3f 7c9d 82bf
00000260: 915a 55bf d3f8 47be b9ad 0fbf 6aaa fbbd
00000270: 482a 383f c364 9cbf 2d16 d43e fd7c d6be
00000280: e5b3 e83e dc7e 823f edf0 d7be 6c55 0a3e
00000290: 3f83 673f ec84 64bf 7143 293e 6b3b 02bf
000002a0: fcd6 2a3f 4580 483e 6634 93be e7f1 ed3d
000002b0: d133 523f 94cb 4bbf 8846 c1be 44be 83bf
000002c0: 0235 4e3e 56a6 db3d 977c a8be ed90 253f
000002d0: f051 6c3f 2deb bdbf 8be1 d03e 12b7 1fbf
000002e0: e3da 55be 2ea1 a73e b096 02bf ed86 013e
000002f0: 9d0c 5ebf f44c 07bf 088f c13e 6784 a03f
00000300: c5e9 113f 8dda b63e 014c 813e fa6d e4be
00000310: 378b 633f 2714 65bf 8c57 6cbf 623a d2be
00000320: cb27 d53e ab2a 2b3e 5fe7 8fbc 80ac c3be
00000330: 1197 d83e 071e af3e 3b89 983f aabe afbf
00000340: ca9e ac3d 5113 aebf f043 8fbf e0d1 153e
00000350: 5f2c 123c 3efa 45be bb36 bdbf 23f5 9d3e
00000360: ce6d 70bf a5af 0bbf 9371 cb3d 7023 bf3e
00000370: c329 023f d463 b6be 6a06 613f 145b 77bf
00000380: 4dc1 ba3e 716c 90bd e497 c9be 0c96 0fbf
00000390: f515 8c3f 09bf 7fbf b2ad e9be 863e 26bf
000003a0: 649e 61bf 7d6a c53d 8efb 85be f4bc dbbf
000003b0: 4096 233f 6093 4bbe 52fc 42bf d11a 0ebf
000003c0: 14d7 093e b457 e63d 9ddd 9f3e 0bf5 883e
000003d0: aec6 5f3f a8fc 5bbf a3c4 923e bdfc 98bf
000003e0: e164 1f3d f059 50bf 8197 1c3d e62e 3bbe
000003f0: bb64 653e faa4 e23e f883 10c0 5e1a 5abf

subnet.res0.branch2.c_bn.weight f4 [32]
0.37121415 0.7894419 0.12691486 0.20734394 0.3509604 0.4551881 0.14743575 0.8044871
0.55328596 0.37208375 0.4953571 0.596257 0.20269836 0.7004584 0.19157082 0.35299394
0.9697944 0.37836355 0.57278806 0.62343544 0.9401655 0.6868516 1.168305 0.1895211
0.2879692 0.20406485 0.41876394 0.21841389 0.7690844 0.270965 0.49084648 0.42111588
00000000: c80f be3e dd18 4a3f f8f5 013e f851 543e
00000010: 15b1 b33e 6a0e e93e 66f9 163e def2 4d3f
00000020: 26a4 0d3f c381 be3e 729f fd3e 4ca4 183f
00000030: 2990 4f3e 3e51 333f 242b 443e 9fbb b43e
00000040: 7244 783f deb8 c13e 3da2 123f 7799 1f3f
00000050: b0ae 703f 82d5 2f3f 058b 953f d211 423e
00000060: b370 933e 60f6 503e 3a68 d63e e4a7 5f3e
00000070: b7e2 443f edbb 8a3e 3b50 fb3e 809c d73e

subnet.res0.branch2.c_bn.bias f4 [32]
0.02137875 -0.52365035 -0.048832055 -0.004078302 -0.039167996 0.02248881 -0.11004004 -0.25146183
-0.2761289 -0.21355382 0.01588381 -0.22808543 -0.0520542 -0.70183015 -0.15593643 -0.07460382
-0.31507808 -0.13416213 -0.35858166 -0.121511705 -0.13460353 -0.025096212 -0.17765293 -0.011491163
-0.10815433 0.042882737 -0.21849513 -0.01980113 -0.16308504 -0.25364333 -0.011978848 -0.24314636
00000000: 7d22 af3c f30d 06bf 1f04 48bd 47a3 85bb
00000010: 9f6e 20bd 743a b83c ac5c e1bd 9bbf 80be
00000020: c460 8dbe daad 5abe c41e 823c 3a8f 69be
00000030: c936 55bd 24ab 33bf cdad 1fbe e3c9 98bd
00000040: ea51 a1be cc61 09be 0498 b7be 21db f8bd
00000050: 82d5 09be 9296 cdbc a6ea 35be 6e45 3cbc
00000060: 0480 ddbd cfa5 2f3d 30bd 5fbe fb35 a2bc
00000070: c4ff 26be 8add 81be ee42 44bc 5cfb 78be

subnet.res0.branch2.c_bn.running_mean f4 [32]
-0.161456 -0.08079844 -1.1281089 -0.56316984 -0.24845481 -0.37275842 -0.12625422 -1.3282804
-1.5283898 -0.8708473 -0.25078082 -0.5548699 -1.2196048 0.3485353 -0.6290355 0.45228508
-0.80975693 0.1281712 0.12308064 -1.1429071 -0.16074501 -0.517537 -0.56998557 -0.5095932
-0.44877523 0.55910516 -1.4573497 -0.21229103 -0.8480514 -1.1917859 -0.15041384 -0.90707767
00000000: b954 25be a779 a5bd df65 90bf e62b 10bf
00000010: f06a 7ebe 31da bebe c948 01be 1805 aabf
00000020: 47a2 c3bf d9ef 5ebf 5866 80be f40b 0ebf
00000030: 031c 9cbf 3873 b23e 7808 21bf e991 e73e
00000040: 3b4c 4fbf 503f 033e b411 fc3d c84a 92bf
00000050: 579a 24be 4e7d 04bf 93ea 11bf b374 02bf
00000060: dec5 e5be 8421 0f3f 6f8a babf d262 59be
00000070: e619 59bf 718c 98bf 1606 1abe 3e36 68bf

subnet.res0.branch2.c_bn.running_var f4 [32]
2.788365 1.4259703 1.6080954 1.4664042 1.3711103 2.6070936 1.9476054 3.3106804
1.6445447 2.3728714 2.587671 1.5146312 1.7670873 1.6535776 1.2656068 1.4244634
1.895734 0.8960552 1.8642201 2.31481 2.260206 2.7651622 3.3751717 1.7536337
2.2503407 2.094262 2.1711862 1.6779509 3.1175094 1.6310849 2.6135626 3.0764525
00000000: 9274 3240 3286 b63f 12d6 cd3f 22b3 bb3f
00000010: 8b80 af3f 9fda 2640 224b f93f 30e2 5340
00000020: 7180 d23f 20dd 1740 679c 2540 6fdf c13f
00000030: eb2f e23f 6ea8 d33f 67ff a13f d154 b63f
00000040: 69a7 f23f e063 653f c49e ee3f d925 1440
00000050: 37a7 1040 6bf8 3040 d002 5840 1277 e03f
00000060: 9505 1040 6308 0640 b7f4 0a40 18c7 d63f
00000070: 4685 4740 64c7 d03f 9c44 2740 99e4 4440

subnet.res1.branch2.a.weight f4 [8, 32, 3, 1, 1]
0.6126831 -0.71861625 0.33217704 -0.20294896 0.6584239 0.36646724 0.44847175 0.18924862
1.0946392 -1.9565276 -0.9120398 -1.2367724 -0.84576625 0.14913455 -1.3510456 -0.46654692
0.11785738 -0.4128719 -1.5512145 -0.83463013 -1.2529229 0.25797522 0.6525053 -0.12012377
-0.6363957 -0.87272733 -1.490982 -0.5783885 0.002359424 -1.0087116 0.42998767 0.0123561565
0.28435412 0.04273099 -1.2273873 -0.23517017 -0.23935023 -0.5257531 -1.521771 0.028263813
-0.7622116 -0.82952815 0.14956507 -0.3136585 0.44389343 -0.7187348 -0.31071034 -0.6863681
0.8104737 -0.7421298 1.3207995 0.078268066 -0.13325486 -1.4219191 0.34050092 -0.42086393
0.27213186 0.42861193 -0.5823035 -0.09806854 -0.21702223 0.46484035 -1.0113807 -0.14002548
-0.3705621 -0.122910745 0.32677975 0.1049768 0.29382044 -1.301908 -1.33722 -1.2159526
0.28810677 -0.46604225 -0.0015283735 0.18999423 0.11050652 -0.3268771 -1.5965935 -1.2706753
-2.5175946 0.02381064 -0.7225761 -0.50758195 0.30663446 -0.027135972 0.456251 0.21721469
-0.29875326 -0.01494959 -0.70533293 -0.2479451 0.022087578 0.028516022 -0.59475815 -0.25454772
-0.28368637 -0.25820577 -0.8660566 0.64445543 -0.3085828 1.398221 -0.28187618 -0.27115574
0.4853903 -1.4323885 -0.87486565 -1.1100386 -0.33290833 -0.4085814 0.47436237 -1.0487664
-0.61604553 -0.9628752 -0.6080825 -0.56396884 -0.8223362 -0.18351746 0.7391831 -0.29600528
-0.43847677 -0.8683992 -0.5311538 -0.6677737 -0.48122236 -1.17632 -0.44211158 -0.3800897
-1.147447 0.8484918 -0.6084998 0.954329 0.4098381 -0.16057819 -0.053934425 -1.7219678
-1.2608747 -0.93258405 -0.07878303 0.07086712 0.21178651 0.2619731 0.19013597 0.5459366
0.49053916 -0.44034567 0.40942407 1.4827763 -0.058413427 0.82198113 0.4754791 0.034712736
0.42593682 -0.052569184 -0.15783273 0.005915975 -0.50678617 0.079782315 -0.55295193 0.20689932
-0.0747673 0.33307624 -0.62532437 -0.50811267 -0.64492023 -0.6117993 -1.1769624 -0.18635924
0.98796576 -0.20355992 0.815877 0.22660488 0.16210398 0.0875596 -0.8576303 -0.76604384
-0.9762544 1.2166607 0.2567989 0.87679213 -0.31593218 0.28873405 -0.1431545 -0.12420538
0.05146225 -0.04248791 1.2446799 1.1496105 1.2703311 -0.18910052 -0.29279175 -0.44342875
0.14078476 -0.16238518 0.009279012 0.27971616 0.19580063 0.57041776 1.870574 1.1283463
1.9574386 -0.036816277 -0.30621886 -0.39745966 -0.92980075 -0.46778142 -1.6171249 0.16888714
-0.34343573 -0.0056798784 0.24844909 -0.24546614 -0.30420172 0.065164775 0.4700182 0.06717917
-0.46505776 -0.32406777 -0.76554435 -0.76343524 -0.0070372177 -1.2573376 0.9886353 0.086350694
0.66924655 -0.17452689 -0.38569915 -0.74960876 -0.11236998 -0.1771821 0.48383445 -0.8087688
-0.15220347 -0.088095866 0.02334153 0.0006940121 -0.53341454 0.7721237 0.1005847 1.2571169
-0.339622 0.15202947 -0.035011306 0.39011058 -0.06787883 0.5782206 0.47690466 -0.13102397
1.0284718 -0.029642934 -0.20794712 0.112367064 0.052180517 -0.037157033 0.13102548 -1.1731175
00000000: cdd8 1c3f 3cf7 37bf 1c13 aa3e dad1 4fbe
00000010: 788e 283f 98a1 bb3e 179e e53e 64ca 413e
00000020: 231d 8c3f 7f6f fabf 717b 69bf 8f4e 9ebf
00000030: 2384 58bf bab6 183e 10ef acbf 3ddf eebe
00000040: 365f f13d f263 d3be 328e c6bf 52aa 55bf
00000050: c75f a0bf 5415 843e 960a 273f 7303 f6bd
00000060: d4ea 22bf 0f6b 5fbf 80d8 bebf 4511 14bf
00000070: 91a0 1a3b 761d 81bf 5827 dc3e 7a71 4a3c
00000080: dd96 913e b106 2f3d 071b 9dbf 73d0 70be
00000090: 3a18 75be c197 06bf 64c9 c2bf 8389 e73c
000000a0: 4d20 43bf f55b 54bf 9627 193e d997 a0be
000000b0: 0046 e33e 01ff 37bf 6d15 9fbe d2b5 2fbf
000000c0: 347b 4f3f 38fc 3dbf f50f a93f 024b a03d
000000d0: f673 08be 7201 b6bf 2356 ae3e 7a7b d7be
000000e0: de54 8b3e 0673 db3e d811 15bf 29d8 c8bd
000000f0: 133b 5ebe 8eff ed3e ec74 81bf d762 0fbe
00000100: 51ba bdbe a1b8 fbbd ad4f a73e 14fe d63d
00000110: a26f 963e eca4 a6bf 062a abbf 56a4 9bbf
00000120: bb82 933e 179d eebe b453 c8ba d98d 423e
00000130: 3e51 e23d 6f5c a7be 2d5d ccbf 7da5 a2bf
00000140: 4520 21c0 880e c33c bffa 38bf e4f0 01bf
00000150: 31ff 9c3e 424c debc bb99 e93e 876d 5e3e
00000160: 30f6 98be 20ef 74bc b390 34bf 52e5 7dbe
00000170: 02f1 b43c 6f9a e93c 1242 18bf 1454 82be
00000180: 573f 91be 8c33 84be e3b5 5dbf 08fb 243f
00000190: 91fe 9dbe e8f8 b23f 1352 90be edd4 8abe
000001a0: 1485 f83e 8258 b7bf 32f7 5fbf bf15 8ebf
000001b0: f672 aabe 9531 d1be a0df f23e fa3d 86bf
000001c0: 29b5 1dbf fd7e 76bf 4bab 1bbf 4360 10bf
000001d0: a084 52bf 00ec 3bbe 1b3b 3d3f 018e 97be
000001e0: 0780 e0be 694f 5ebf b2f9 07bf 38f3 2abf
000001f0: c762 f6be a791 96bf 735c e2be 1e9b c2be
00000200: 8bdf 92bf c236 593f a5c6 1bbf e84e 743f
00000210: 4dd6 d13e 9c6e 24be 58ea 5cbd 7169 dcbf
00000220: 5864 a1bf d4bd 6ebf ff58 a1bd c822 913d
00000230: 90de 583e 5721 863e 01b3 423e 80c2 0b3f
00000240: f327 fb3e fd74 e1be 08a0 d13e 9dcb bd3f
00000250: eb42 6fbd 5b6d 523f ff71 f33e f12e 0e3d
00000260: 6414 da3e c952 57bd e79e 21be ccda c13b
00000270: bdbc 01bf e964 a33d 428e 0dbf 6add 533e
00000280: 991f 99bd f888 aa3e 4215 20bf ac13 02bf
00000290: 7e19 25bf e19e 1cbf b4a6 96bf f5d4 3ebe
000002a0: 53eb 7c3f 0372 50be 51dd 503f 1c0b 683e
000002b0: 96fe 253e 7352 b33d a98d 5bbf 731b 44bf
000002c0: cfeb 79bf 8abb 9b3f 257b 833e 7375 603f
000002d0: ddc1 a1be f3d4 933e 1897 12be 645f febd
000002e0: 15ca 523d cd07 2ebd ac51 9f3f 7026 933f
000002f0: 369a a23f 91a3 41be cde8 95be 1809 e3be
00000300: e129 103e 4d48 26be ff06 183c f536 8f3e
00000310: f67f 483e e606 123f f86e ef3f a76d 903f
00000320: 598d fa3f aacc 16bd b8c8 9cbe d57f cbbe
00000330: 6c07 6ebf 0c81 efbe f3fd cebf c0f0 2c3e
00000340: cfd6 afbe 461e babb 7069 7e3e 7a5b 7bbe
00000350: 54c0 9bbe 1c75 853d 3aa6 f03e 3c95 893d
00000360: 0d1c eebe 36ec a5be b7fa 43bf 7e70 43bf
00000370: 7698 e6bb 70f0 a0bf 3417 7d3f a2d8 b03d
00000380: be53 2b3f 2db7 32be 5c7a c5be 5ce6 3fbf
00000390: 3b22 e6bd 396f 35be 26b9 f73e 790b 4fbf
000003a0: 3adb 1bbe 9b6b b4bd bc36 bf3c 5dee 353a
000003b0: db8d 08bf e6a9 453f 5aff cd3d 35e9 a03f
000003c0: efe2 adbe 9dad 1b3e 0468 0fbd 93bc c73e
000003d0: 0e04 8bbd 4406 143f d92c f43e 262b 06be
000003e0: f7a4 833f bdd5 f2bc 17f0 54be b420 e63d
000003f0: 3dbb 553d f931 18bd 8b2b 063e b728 96bf

subnet.res1.branch2.a_bn.weight f4 [8]
0.8361411 1.0450405 1.3022201 1.4451548 1.3492552 0.7384739 1.0177096 1.3444998
00000000: 580d 563f e3c3 853f 26af a63f d5fa b83f
00000010: 65b4 ac3f a00c 3d3f 4f44 823f 9218 ac3f
